DSSM_final.pth (torch, 637866 bytes, 2 tensors)

weight f4 [6041, 16]
00000000: d6f3 0280 52ff ad01 bd26 0700 f986 0580
00000010: 63fc 0180 0a9b 0600 b0c2 eb00 3866 0180
00000020: e358 0180 109a 0400 89e5 0480 7a45 0280
00000030: 4539 0300 65c7 0480 54f8 0100 101a 0880
00000040: 90f0 803d c215 16bd 85a3 a9be 4f13 523d
00000050: c09d f8be 5811 fdbe c9be 953d 9f93 85bd
00000060: 9a22 d23e 8dab debe 7cae 013f 6bb9 a53e
00000070: 04f5 9a3e cbb0 d1bc cfbf 963e 5948 08be
00000080: 26bf 4bbe 1772 e4bd c729 c7be 638d 993d
00000090: 7fbb fdbe 2a2e 0bbf 5913 db3d bf81 26be
000000a0: 0c0f d73e aaaf c0be 6fef 123f 20c8 c63e
000000b0: 0948 c33e ecd6 66bd 1f18 813e 9afd 17be
000000c0: dad7 2a3d 0c76 2abe 3cdf 83be 4cdb 0c3d
000000d0: e1c9 e0be e498 07bf a22a 703d 3191 3fbe
000000e0: 4729 c03e 1c32 a6be 8a14 ff3e ce23 ce3e
000000f0: a7b3 603e 6775 abbc 0cb8 8b3e 14e8 adbd
00000100: 8485 8cbd 5a6f 6abe 9392 80be 96dc aebc
00000110: d57c aabe ab12 e0be bd09 b23d 99ae 0ebe
00000120: 6a01 b63e 3134 89be 213b c43e e43d b53e
00000130: e3a1 673e 2d34 883c 2920 7c3e a594 87bd
00000140: 7540 173c 5c0a 8abd 9b8d 40be 9346 dcbd
00000150: 6408 aebe 0701 1fbf daaa 633e 3076 cfbd
00000160: 3e7e f93e e35c 24bf 12a3 d33e 03c0 ac3e
00000170: 056f 0c3f 8304 f7bd 0a19 c43e 6d2e b83d
00000180: 231b 8e3d f64a 513a 8bce c3be b3b6 91bc
00000190: 45b1 08bf f1b9 f8be 5583 17bb 7148 90bd
000001a0: 4028 d83e 623b e8be 5ca5 013f 5309 923e
000001b0: d866 a13e 1666 1c3b 29a2 7f3e 6351 1dbe
000001c0: ab59 9dbd 48cf 68be f349 94be bf19 56bd
000001d0: 2075 c8be d774 ecbe d38f 093d 4d90 a1be
000001e0: 0298 b03e d805 98be 16ee e13e 4db4 b13e
000001f0: 14ef 843e c857 5bbd dc89 4f3e fc7a e0bd
00000200: c0b1 ddbd 961b 21bd 34c9 8bbe 4be1 32bd
00000210: a44f e0be 23f6 16bf 866c d13d a1a2 a1be
00000220: d19e cd3e d1d3 0abf 8bb6 063f 53f1 9f3e
00000230: 3df0 043f bd5e 4ebe 6a46 703e b40b dbbc
00000240: 3517 23bd 90f8 92bd 64fe 66be 8341 f83c
00000250: 3d1e c1be 632f 11bf 37be 443e c2af a7be
00000260: e659 c83e 0489 0fbf 17ee fc3e df76 a63e
00000270: 3de6 fd3e 26c9 78be 56f3 a23e 5b75 0cbd
00000280: eddd d03e 9afd efbd 8f8c f8be 19b8 4b3d
00000290: ef22 3ebf ed40 13bf 9d74 81bd d959 bbbd
000002a0: 9c20 083f 9d39 e5be 124d 273f fc70 e03e
000002b0: 11e3 813d a86b 203e 66a4 c73e e353 a8be
000002c0: ca65 9a3d d635 bfbc fcc6 0fbe f2be 313d
000002d0: dc01 cabe dcb2 20bf c575 223e ee80 62be
000002e0: 1a50 c73e 7380 0abf 8521 023f a907 bb3e
000002f0: a18c db3e 4190 40be 0fed a73e 2a3c 603d
00000300: cbd7 4dbd dfbd ccbd cee7 46be 1af8 b1bb
00000310: ef3c 93be 674d d0be 6675 d63d b98b e6bc
00000320: bbc8 a63e 1f94 9bbe 4dd6 ab3e 90e8 923e
00000330: ff83 853e d211 3bbc 15f2 713e 13ce 7ebc
00000340: fb06 07bd 25f5 93be 3faa adbe 9978 c7bc
00000350: 0bf5 d0be a711 f0be 7f56 cb3d 71c9 8fbe
00000360: a876 d13e 2588 b1be eaa5 e83e b85d c63e
00000370: 9ac0 873e 928d d4bc 4e00 9a3e 9573 26be
00000380: d7f6 a9bc 91d7 babd bb06 4bbe da1b c5bc
00000390: 8f2e 94be a741 c8be 8380 b83d d1f7 a5bd
000003a0: 8032 a03e 77ab aabe 2c4d a83e 8ad3 823e
000003b0: d5b9 903e 6632 dcbc 0258 623e 2faf 98bc
000003c0: bb47 a9bd 6b14 dbbd d57a b8be 0948 3bbd
000003d0: 55cd 06bf 24ff 0ebf ee78 2cbc e5e9 0abf
000003e0: 51bc b83e 4778 f0be bd59 183f bd99 a53e
000003f0: f625 df3e 366f 76be 6d3e 323e 9522 08be
-2.71143e-40 6.391653e-38 6.56745e-40 -5.07597e-40 -1.82375e-40 6.0663e-40 2.1651182e-38 -1.28505e-40
-1.23722e-40 4.22609e-40 -4.49684e-40 -2.08594e-40 2.96051e-40 -4.38871e-40 1.80919e-40 -7.44033e-40
0.06295884 -0.036641844 -0.33132568 0.051287945 -0.48557854 -0.49427295 0.0731178 -0.06522297
0.41042024 -0.43490258 0.5065687 0.32368025 0.30265057 -0.025596997 0.29443213 -0.13308848
-0.19897136 -0.111545734 -0.3889906 0.074976705 -0.4955711 -0.54367316 0.1069705 -0.16260432
0.42003667 -0.3763402 0.57396597 0.38824558 0.38140896 -0.05635731 0.25213715 -0.14842835
0.04170976 -0.16646594 -0.25756252 0.034388825 -0.4390402 -0.5296767 0.058634408 -0.1870773
0.37531492 -0.32460105 0.49820358 0.40261692 0.21943532 -0.020930005 0.27288854 -0.08491531
-0.068614036 -0.2289404 -0.25111827 -0.021345418 -0.33298364 -0.43764243 0.08693264 -0.13933791
0.35547954 -0.2679763 0.38326362 0.3539878 0.22620349 0.016626442 0.24621643 -0.066201486
0.009231676 -0.06740257 -0.18804018 -0.107556485 -0.33990777 -0.6211094 0.22233143 -0.10129964
0.48729128 -0.64204234 0.4133535 0.33740243 0.548569 -0.120614074 0.38300353 0.0899323
0.0693877 0.00079838873 -0.38243517 -0.017787313 -0.5339549 -0.48579362 -0.0023119051 -0.07045067
0.42218208 -0.45357805 0.50642943 0.2852274 0.31523776 0.002386456 0.24964203 -0.15363078
-0.076831184 -0.22735322 -0.2896267 -0.052270647 -0.3915186 -0.46182892 0.033584427 -0.31555405
0.34490973 -0.29691958 0.44126958 0.3470787 0.25963652 -0.05355051 0.20267433 -0.109609574
-0.10824919 -0.03933295 -0.27301943 -0.043671887 -0.4381076 -0.58969325 0.10225777 -0.31569389
0.4016023 -0.54229456 0.5262229 0.31238803 0.51929075 -0.20153327 0.23464361 -0.026738979
-0.039817054 -0.07176316 -0.2255798 0.030304676 -0.37718382 -0.5671293 0.19213186 -0.3275128
0.39131087 -0.56068444 0.49400398 0.32512566 0.4958972 -0.24295482 0.31826276 -0.034291606
0.40794316 -0.117182925 -0.48544738 0.049736116 -0.74272054 -0.57520944 -0.0632107 -0.091479965
0.5317476 -0.44770518 0.65351975 0.438362 0.063421376 0.15666068 0.38992614 -0.328765
0.07538946 -0.0233411 -0.1404075 0.04339499 -0.39454544 -0.6277292 0.15865238 -0.22119495
0.389283 -0.5410225 0.50832397 0.36529282 0.4288073 -0.18805028 0.3279805 0.054744877
-0.050254624 -0.099971525 -0.19424364 -0.0054311873 -0.28757426 -0.40684053 0.10471611 -0.028142797
0.3257502 -0.30386445 0.33561936 0.28693056 0.26077268 -0.011417823 0.23627503 -0.015552062
-0.03296564 -0.28897968 -0.3391895 -0.024349498 -0.40811953 -0.46888468 0.09928607 -0.28083375
0.4091084 -0.34674183 0.45439082 0.38743377 0.2651413 -0.025946412 0.30078357 -0.16255029
-0.020747585 -0.09123147 -0.19826786 -0.024061132 -0.2894177 -0.3911259 0.09008887 -0.08103908
0.31288528 -0.33333942 0.32871377 0.25552016 0.2826678 -0.0268795 0.22103885 -0.018638222
-0.082656346 -0.10697254 -0.36031213 -0.045722995 -0.5265706 -0.55858064 -0.010526879 -0.54263145
0.36081174 -0.46966764 0.5951193 0.32343856 0.4358365 -0.24065861 0.17406626 -0.13294442

weight f4 [3883, 16]
00000000: 71bb 1c3f 7add 9b3e 5ae9 d13e 8caf e73e
00000010: bb1f 223f ecb0 843f ac60 093d ce92 d9bd
00000020: 09fa 3ebf 7933 e43e 404b 34bf c786 33bf
00000030: 5619 29bf 3eca 5bbe c9ee 3cbe 3e91 93be
00000040: f355 a93e 4ad5 1a3e c511 9b3e 8c8a 18be
00000050: 9e08 083f 4308 883f 9d1b 03bf 94cf 92bd
00000060: afaf 42bf 8c31 4d3f b7f7 4cbf 02c6 38bf
00000070: 4139 56bf 3d32 133e 6c8d 23bf ffdc 0bbe
00000080: 9128 673e 8ca0 b93e b83c d73e 4840 ae3b
00000090: 403a 1f3f fabb 863f bcf5 c3be 31ee ec3c
000000a0: 3a13 55bf 50d4 393f e445 4cbf 931e 47bf
000000b0: 85c8 2bbf 4fed 9abc 6ccb 21bf a533 52bc
000000c0: 5325 8c3d 934a 9c3e a939 cf3e 7bc0 cf3c
000000d0: 787c 213f d20c 6b3f cce4 5dbe af4d 2a3e
000000e0: 8d24 35bf 9b6a 1e3f 5c65 3fbf ba8e 2dbf
000000f0: d1a5 02bf cd43 083c 6bb1 03bf 6528 1e3d
00000100: 54c0 353e 66f4 c63e 2499 b93e d448 f23c
00000110: 551b 0b3f 526f 7a3f ee37 c0be 9a1b 763d
00000120: 3cf0 47bf b0e4 2d3f fe95 36bf 082c 3ebf
00000130: fb2b 1dbf bae2 e9bb ee15 1fbf 4efb f7bc
00000140: 0d30 fabe 5533 adbd c6ea 283f 1211 f1bc
00000150: fc51 623f 4167 393f 6cbb c1bd ea60 13bf
00000160: 1dd3 58bf 4a33 503f fbcd 35bf dfde f7be
00000170: 1576 b6be 6b66 babe 7e76 29bf e53a 8c3e
00000180: 7d59 713e 98fd 1c3f a8ef 933e 4e88 023e
00000190: 0f79 d63e b30c 813f 2e92 e6be 6ba8 143e
000001a0: 9f60 50bf 1d8f 253f 485e 20bf 80cf 52bf
000001b0: 80f7 1ebf 9589 febc acaa 2ebf 76f9 04be
000001c0: 9ad6 563d f73f 333e 6aa4 9e3e 136a 09bc
000001d0: 2e78 023f fd3a 373f bfc1 23be 4c7a f13d
000001e0: e6d8 06bf 78c4 fa3e 01e7 1abf 4558 01bf
000001f0: 9cb4 d1be 3eb6 c83c 778d c1be 623e 1c3d
00000200: d64c 7a3c bd3e 143e 71d8 b03e 525a 1ebd
00000210: 85e9 153f dca6 4f3f 7a84 43be f521 a93d
00000220: 59ff 1abf 4794 183f bc17 30bf 5069 0ebf
00000230: 205f f2be 90e4 133d cc04 e7be 07a0 233d
00000240: caf6 483d 2e2e f6bd 0da5 9e3e f429 0dbe
00000250: 4c82 0a3f 8728 7b3f d580 0abf 6e26 23bf
00000260: ca77 5abf 9c95 7b3f e6e5 2fbf 0da8 18bf
00000270: 1716 5abf be94 1dbd 1771 41bf 59db 37be
00000280: 77e9 7b3e de25 643f f4cd 973e 99c9 b73e
00000290: 6f07 983e 0051 723f 89d3 f9be 5d82 6f3d
000002a0: 50a7 66bf 7bd2 1a3f 1d4c e4be ded2 59bf
000002b0: ab4a 12bf b5fd 4fbe 5d63 40bf 816e 3bbe
000002c0: 979e a03d 49d7 4c3e f9c3 cd3e f92b cfbc
000002d0: d72f 283f f990 6b3f 47b5 56be dc55 2e3e
000002e0: 7fea 2cbf 7303 283f bcf2 48bf 00cf 22bf
000002f0: d267 0ebf 7899 883d a0cc f7be 3b0d 583d
00000300: 8f8b 913d 3885 373e 5c65 8e3e df8e c3bc
00000310: 3fb9 013f 92bf 443f c913 3cbe 70c9 2c3e
00000320: 50cc 07bf 38e0 053f 1d9a 22bf 095a 08bf
00000330: f0ef e6be 9008 963d 742c c8be 9282 923b
00000340: 4b7e 66bd 9680 953e b784 d93e 4c08 84bb
00000350: 5831 1c3f 40aa 383f e9b0 02be ce0b 853e
00000360: aa29 15bf 789d 043f a547 2abf ea42 0ebf
00000370: be5c b1be eddb 45ba 311b e3be 5905 273e
00000380: 71c6 4f3d 17f2 323e ed33 b13e e79e a3bc
00000390: f329 1a3f f8af 633f cd48 63be 982f 073e
000003a0: 88b6 25bf 40c8 273f 867b 3bbf fb2a 1abf
000003b0: 51b6 0bbf fe36 853d 27b7 f5be cea4 343c
000003c0: ef8a 66be 1c6a b03e 8a7e 463f 7d58 5d3c
000003d0: b5e0 513f 74cf 253f 6dd3 05be a67d 43be
000003e0: c69c 55bf 1c2f 1b3f 37ff 30bf 515b 17bf
000003f0: 7aa1 89be af15 b4be 5430 26bf 8900 df3e
0.6122351 0.3044241 0.40998346 0.4525112 0.63329667 1.0366492 0.03353946 -0.10623704
-0.74600273 0.4457052 -0.7042732 -0.7012753 -0.66054285 -0.21463868 -0.18450464 -0.28821748
0.33073387 0.15120426 0.30286995 -0.14896601 0.5313815 1.0627521 -0.5121401 -0.07168499
-0.7604932 0.8015373 -0.8006548 -0.72177136 -0.8368111 0.14374633 -0.6388767 -0.13658522
0.22574069 0.362553 0.42038512 0.0053177215 0.6219826 1.0526116 -0.38273418 0.028922172
-0.8323246 0.7258959 -0.79794145 -0.7778103 -0.67102844 -0.018911986 -0.6320102 -0.012829696
0.068430565 0.30525646 0.4047368 0.025360337 0.6308055 0.9181644 -0.2166931 0.16631196
-0.707589 0.6188142 -0.7476404 -0.6779591 -0.51034266 0.008316946 -0.51442593 0.038612742
0.17749149 0.38858336 0.3624965 0.029575743 0.5433858 0.9782611 -0.3754267 0.060084917
-0.78100944 0.67927074 -0.7132262 -0.74285936 -0.61395234 -0.0071376236 -0.6214284 -0.030271199
-0.48864785 -0.084570564 0.65983236 -0.029427085 0.8840635 0.7242318 -0.09459576 -0.57569754
-0.84697133 0.8132826 -0.71017426 -0.48412225 -0.35636964 -0.36406264 -0.6619643 0.27388683
0.23569293 0.61324453 0.2889378 0.12747309 0.41889235 1.0082 -0.450334 0.14517371
-0.8139743 0.646715 -0.6264386 -0.8234787 -0.62096405 -0.031071464 -0.68229175 -0.12985787
0.052450754 0.1750487 0.30984813 -0.0083871065 0.5096463 0.71574384 -0.15991877 0.117909044
-0.5267471 0.4897802 -0.60508734 -0.50525314 -0.40958107 0.024500962 -0.37803242 0.03814543
0.015277108 0.14477058 0.34540132 -0.038660355 0.5855945 0.8111398 -0.19093505 0.0825843
-0.6054588 0.59601253 -0.68786216 -0.55629444 -0.473382 0.036106646 -0.45120847 0.039947536
0.04906348 -0.12020527 0.309853 -0.13785535 0.5410507 0.98108715 -0.5410283 -0.63730514
-0.85339034 0.9827516 -0.6871017 -0.59631425 -0.85189956 -0.03847193 -0.75563186 -0.17954768
0.24600779 0.8912028 0.29649317 0.35895994 0.2969317 0.94654846 -0.487942 0.058473933
-0.9009905 0.6047742 -0.4458932 -0.8508738 -0.57145184 -0.20311625 -0.75151616 -0.18303873
0.078427486 0.20004 0.40188578 -0.025289522 0.65698 0.92018086 -0.2096759 0.1702494
-0.6754531 0.65630263 -0.78495383 -0.63597107 -0.5562717 0.06669897 -0.48398304 0.052746993
0.07106697 0.17921913 0.27811706 -0.023871837 0.5067329 0.76854813 -0.18366922 0.16873717
-0.5304613 0.52295256 -0.6351641 -0.5326238 -0.45104933 0.07325852 -0.39096415 0.0044711316
-0.056272786 0.29199666 0.42484066 -0.0040293094 0.6101279 0.7213478 -0.12762798 0.2598557
-0.582667 0.5180278 -0.6651557 -0.5557085 -0.3464107 -0.0007547725 -0.44356683 0.16310634
0.050726358 0.17475162 0.3460993 -0.019973231 0.6022026 0.8894038 -0.2219574 0.1320175
-0.64731646 0.6553993 -0.73235357 -0.60221833 -0.5457507 0.065046296 -0.47991297 0.011025621
-0.22513936 0.34455955 0.77536833 0.013509867 0.819835 0.64769673 -0.13068934 -0.190909
-0.8344234 0.6061876 -0.69139427 -0.5912371 -0.2688101 -0.35172793 -0.6491749 0.43555096
