recall/DSSM/DSSM.pth (torch, 642118 bytes, 2 tensors)

weight f4 [6041, 16]
000000 0c ca 0b 80 1d 0d 42 00 89 86 00 00 73 ef 02 00
       -1.082671e-39 6.065847e-39 4.8262e-41 2.69569e-40
000010 e0 d7 1d 80 4b 0f 34 00 7c c5 07 80 76 5b 1e 80
       -2.740671e-39 4.780932e-39 -7.13693e-40 -2.787875e-39
000020 c4 67 1a 80 c5 f9 08 80 41 9b 0d 00 1e d5 0a 00
       -2.424947e-39 -8.24284e-40 1.249556e-39 9.94807e-40
000030 57 9b 1a 00 0a 27 05 80 1d f4 0e 00 92 d5 38 00
       2.443448e-39 -4.73182e-40 1.373268e-39 5.219402e-39
000040 8d 56 d9 be ab aa c8 3e c1 54 d4 3e 81 28 d6 be
       -0.42448846 0.3919271 0.41470912 -0.41827777
000050 b4 62 c6 3e 2c 7d 01 be 62 67 d3 be 52 01 d6 be
       0.3874718 -0.12645406 -0.41289812 -0.41797882
000060 92 3e cb be 09 9a c3 3e fe 2b d4 be 03 ea d9 3e
       -0.39696175 0.38203457 -0.41439813 0.4256135
000070 fd 92 df 3e 95 ac e5 3e 36 57 ce be 97 cd c1 3e
       0.4366683 0.44858232 -0.40300912 0.37852165
000080 eb 1c 01 bf 06 1d d7 3e fc 29 d6 3e 74 e2 f1 be
       -0.5043475 0.4201433 0.41828907 -0.47243083
000090 1c 1b 00 3f 70 1e 04 be 7c 00 c9 be 85 ec e4 be
       0.50041366 -0.12902236 -0.39258182 -0.447117
0000a0 58 38 e8 be 93 16 e0 3e 8f f4 eb be 4d 49 db 3e
       -0.45355487 0.43767223 -0.4608502 0.42829362
0000b0 98 9c dd 3e c5 bc e8 3e c7 0d fb be f8 fd d6 3e
       0.43283534 0.4545652 -0.4903395 0.41990638
0000c0 7a 31 e3 be 33 f8 b4 3e f1 b9 ca 3e 96 db ce be
       -0.44373685 0.3534561 0.39594987 -0.40401906
0000d0 61 8b e1 3e 2c 68 0c be 88 b0 c2 be 8b 8f cf be
       0.4405165 -0.13711613 -0.38025308 -0.40539202
0000e0 c7 09 c2 be ea 8d d2 3e 32 35 e2 be 0e 08 d7 3e
       -0.37898085 0.41123897 -0.4418121 0.41998333
0000f0 cd 4b cb 3e 8e 34 d8 3e 16 fa e0 be 21 9f b5 3e
       0.3970627 0.42227596 -0.439408 0.35472968
000100 e7 7d a6 be 7b b7 a9 3e b8 bb a8 3e 06 f3 be be
       -0.3251793 0.33147797 0.32955718 -0.37294787
000110 86 ba c1 3e 9c 24 cc bd 3b 03 b3 be 18 f5 bc be
       0.3783762 -0.0996792 -0.34963402 -0.36905742
000120 14 ec a9 be a9 a1 ad 3e 37 36 c9 be e3 13 bb 3e
       -0.33187926 0.339124 -0.39299175 0.3653861
000130 92 5c a8 3e 6b c7 99 3e d6 95 d1 be af fd a4 3e
       0.32883126 0.30034956 -0.40934628 0.32224795
000140 10 f4 c2 be 30 8d 05 3f 30 09 db 3e 6a 8b 08 bf
       -0.3807683 0.5216856 0.42780447 -0.5333773
000150 a7 4d e9 3e 24 12 c8 bd 8d 16 a9 be 79 46 c0 be
       0.45567057 -0.09769085 -0.33025017 -0.37553766
000160 1a 9b 15 bf b4 d1 da 3e 72 72 d9 be 92 37 cd 3e
       -0.5843979 0.42738116 -0.42470127 0.4008146
000170 2f fb 1b 3f 1e 8d 16 3f f5 b6 d9 be 45 38 02 3f
       0.6093015 0.5880908 -0.42522398 0.5086711
000180 85 4d d7 be 4b 07 cc 3e ad 37 e2 3e 91 fe de be
       -0.4205133 0.39849314 0.44183102 -0.43553594
000190 bf 93 c9 3e f0 d4 1e be e8 17 db be 22 fe df be
       0.39370534 -0.15510917 -0.42791677 -0.43748575
0001a0 76 7d d4 be cf 32 cb 3e 5a e0 e4 be 68 56 e1 3e
       -0.4150197 0.396872 -0.44702417 0.44011235
0001b0 c4 8d ef 3e 76 cf e6 3e 5d c8 c6 be 39 64 bd 3e
       0.46787846 0.45080155 -0.3882474 0.36990526
0001c0 99 28 cf be 12 c9 a6 3e 2f 50 b0 3e da dc ca be
       -0.4046066 0.3257528 0.34436175 -0.3962162
0001d0 01 a0 e4 3e ab 11 12 be 79 55 9f be bd a0 b3 be
       0.44653323 -0.14264552 -0.31119898 -0.3508357
0001e0 74 a5 c3 be af 85 ca 3e b7 a3 d3 be 72 8d b9 3e
       -0.38212168 0.39555117 -0.41335842 0.36240727
0001f0 c6 a1 bc 3e ba 13 c5 3e e9 64 d9 be d3 92 a6 3e
       0.36842173 0.38491613 -0.424598 0.32533893
000200 46 35 cb be b0 b9 e7 3e 26 6d df 3e 21 e6 fc be
       -0.39689082 0.45258856 0.4363796 -0.49394324
000210 db bf fd 3e e3 6b 2b be fa 10 9f be 6b ed be be
       0.49560437 -0.16740374 -0.3106764 -0.3729051
000220 f3 aa 0d bf b1 19 e9 3e ac 90 e4 be d9 05 c6 3e
       -0.5533897 0.45527413 -0.44641626 0.38676336
000230 88 72 12 3f 52 3c 08 3f e2 e7 d9 be fe 7b db 3e
       0.5720601 0.5321704 -0.42559725 0.42868036
000240 e7 ec c8 be 95 87 e5 3e b1 01 d7 3e 14 29 f6 be
       -0.39243242 0.44830003 0.41993478 -0.48078215
000250 c1 8f f2 3e 9b 14 f0 bd b6 58 9a be 71 9d b5 be
       0.473753 -0.1172268 -0.30145806 -0.3547168
000260 6a 64 06 bf fa 34 e1 3e 03 da d3 be ca 9a c5 3e
       -0.5249697 0.4398573 -0.41377267 0.38594657
000270 d7 62 0f 3f 20 d8 0a 3f 04 bb e7 be f4 6d e5 3e
       0.5601019 0.5423603 -0.4525987 0.4481045
000280 1e 9e 15 bf 69 e0 b5 3e 19 d1 0b 3f 1d f3 d2 be
       -0.5844439 0.35522774 0.5461593 -0.41201106
000290 43 f7 e8 3e cf 59 53 be e6 fb 15 bf 48 e9 13 bf
       0.45501146 -0.20639728 -0.5858749 -0.57777834
0002a0 b7 8d a8 be 24 50 f3 3e 7b 88 09 bf 99 13 13 3f
       -0.3292062 0.4752208 -0.5372388 0.5745178
0002b0 8c 64 cf 3e 29 1b e9 3e 0a a1 02 bf 39 97 b5 3e
       0.405064 0.45528534 -0.51026976 0.35466936
0002c0 60 9b c6 be 2e 1c de 3e 94 3e fb 3e f4 61 e3 be
       -0.38790417 0.43380874 0.4907118 -0.4441067
0002d0 8c 87 e4 3e 95 b7 2b be 6f 8f b8 be e0 ed ce be
       0.44634664 -0.1676925 -0.3604693 -0.4041586
0002e0 ff 1f 06 bf 34 c7 e8 3e 6a dc dc be 5d 5e d6 3e
       -0.5239257 0.4546448 -0.43136913 0.41868868
0002f0 c8 a9 17 3f 27 89 0f 3f f7 2a c7 be 06 e0 d4 3e
       0.5924344 0.5606865 -0.38899967 0.41577166
000300 62 b6 c2 be be c3 b4 3e d1 91 a8 3e a9 b7 cf be
       -0.38029772 0.3530559 0.3292375 -0.4056981
000310 59 c5 b4 3e 49 26 c3 bd c3 39 ae be 7d d1 c1 be
       0.35306814 -0.09528787 -0.34028444 -0.3785514
000320 78 fd ae be 56 2d ae 3e a8 fb c3 be 91 55 b3 3e
       -0.34177756 0.34018964 -0.38277936 0.3502622
000330 9e 13 bc 3e ae e9 b7 3e 60 b0 97 be 2a 91 af 3e
       0.36733717 0.3592047 -0.2962675 0.3429044
000340 4e 31 0e bf 70 ce 99 3e 89 aa bf 3e 66 6e df be
       -0.55543983 0.30040312 0.37434795 -0.43638915
000350 93 51 15 3f 04 76 42 be 48 31 c0 be 6c a4 d8 be
       0.583276 -0.18990332 -0.375376 -0.42312944
000360 2d e4 c0 be 5e cf 01 3f 0a fa 07 bf 4f 52 e7 3e
       -0.37674084 0.5070704 -0.53115904 0.45179984
000370 e2 93 a4 3e ac 8a c1 3e e6 29 15 bf 0d b9 a7 3e
       0.32144076 0.3780111 -0.58267057 0.3275837
000380 9e b4 b8 be 70 44 b4 3e 1e 12 a3 3e 85 41 ca be
       -0.360753 0.35208464 0.3184976 -0.39503112
000390 09 7a b1 3e d5 96 e7 bd 17 2a af be 3e 69 a3 be
       0.34663418 -0.11308066 -0.342118 -0.3191623
0003a0 0e 8c b5 be fc d6 b1 3e 7b 70 ce be bd 15 be 3e
       -0.35458416 0.34734333 -0.4032019 0.3712596
0003b0 00 a0 b7 3e 9a 26 c4 3e bf e4 b2 be e4 38 ad 3e
       0.35864258 0.383107 -0.34940144 0.33832467
0003c0 bb a9 c6 be 97 39 c0 3e 40 ae dd 3e 64 29 ff be
       -0.3880137 0.37543938 0.43297005 -0.49836266
0003d0 55 58 21 3f 6c 90 85 be f4 77 59 be 5e d1 8f be
       0.6302541 -0.26086748 -0.21237165 -0.28089422
0003e0 12 cf 19 bf a8 df 15 3f 26 74 02 bf af 9e c2 3e
       -0.6008159 0.585444 -0.5095848 0.3801169
0003f0 ae 78 1d 3f ec d3 0d 3f 36 cc 02 bf 81 98 b9 3e
       0.6151227 0.5540149 -0.5109285 0.36249164

weight f4 [3953, 16]
000000 14 67 25 00 ef 69 20 80 5c be 14 80 f9 14 13 80
       3.434891e-39 -2.976738e-39 -1.904998e-39 -1.752398e-39
000010 c8 49 7e 81 43 d3 46 00 ec 5f 07 00 08 d8 40 00
       -4.6705367e-38 6.504271e-39 6.77259e-40 5.954969e-39
000020 5e f8 0a 80 32 ae 0b 80 d8 2c 13 80 7b 00 14 80
       -1.007452e-39 -1.07268e-39 -1.760961e-39 -1.836882e-39
000030 54 9b 0d 80 34 7c 0f 00 16 c5 30 80 b6 ca 03 80
       -1.249583e-39 1.422088e-39 -4.478805e-39 -3.48225e-40
000040 04 de 4c 3f 12 f1 2f bf 91 cd 21 bf 29 32 42 3f
       0.8002627 -0.6872722 -0.63204294 0.7585779
000050 4d bc 31 bf 8f de b0 3e d8 e5 4e 3f da b3 5a 3f
       -0.6942795 0.345448 0.80819464 0.8543068
000060 b7 f0 3a 3f 60 74 19 bf bb d8 58 3f 86 85 34 bf
       0.7302355 -0.599432 0.84705704 -0.7051624
000070 2f 8b 0b bf e4 7e 0a bf 67 0c f0 3e f4 0f 14 bf
       -0.5450925 -0.5409987 0.46884462 -0.5783684
000080 5e d3 28 3f 59 b6 64 bf da 82 23 bf fa bd 42 3f
       0.6594752 -0.8934074 -0.6387154 0.7607113
000090 3c ec f0 be 86 73 54 bd 48 28 32 3f 7a c5 40 3f
       -0.47055233 -0.051867984 0.69592714 0.75301325
0000a0 b3 47 3c 3f eb dc dc be 2d b0 03 3f 35 be 23 bf
       0.73546904 -0.43137297 0.514407 -0.6396211
0000b0 a3 9a 44 bf 35 59 51 bf 6a 89 09 3f 21 44 63 bf
       -0.76798457 -0.81776744 0.537253 -0.8877583
0000c0 c6 9b 48 3f d7 a6 40 bf e0 70 0a bf 81 43 3b 3f
       0.7836269 -0.7525458 -0.54078484 0.7314988
0000d0 ed 6c 17 bf bb a0 3b bc f9 82 32 3f 3a 1b 40 3f
       -0.5915058 -0.011451895 0.697311 0.75041544
0000e0 36 fc 19 3f eb 81 fb be 3b b2 1b 3f 1f 12 2b bf
       0.6015047 -0.49122557 0.60818833 -0.66824526
0000f0 40 1d 09 bf 56 d4 2b bf 66 ea 37 3f 69 08 4b bf
       -0.53560257 -0.67120874 0.7184204 -0.7930971
000100 0b 66 3d 3f 20 b5 15 bf 5b e5 04 bf d9 61 24 3f
       0.7398383 -0.584795 -0.5191247 0.64211804
000110 fb ac 20 bf 61 aa d1 3d af f6 20 3f 0a d0 29 3f
       -0.6276395 0.10237575 0.6287641 0.6633307
000120 58 3c 08 3f 52 84 0c bf 93 1d 23 3f 80 7f 24 bf
       0.5321708 -0.54889405 0.63717 -0.6425705
000130 cf 74 f3 be 5f 44 17 bf 66 d5 33 3f 8d aa 1e bf
       -0.47550055 -0.590887 0.70247495 -0.6197899
000140 0c f2 41 3f 1e c2 3c bf b1 4b fe be b3 0d 3b 3f
       0.7575996 -0.737337 -0.49667123 0.7306778
000150 43 12 14 bf c3 f4 15 bd 62 56 29 3f 88 51 35 3f
       -0.57840365 -0.036610376 0.66147435 0.7082753
000160 62 f4 15 3f 1c 28 f0 be 7c 65 17 3f 40 8d 26 bf
       0.58576024 -0.469056 0.5913923 -0.6505928
000170 91 da 03 bf 40 84 27 bf a6 cf 37 3f d5 f5 48 bf
       -0.5150538 -0.6543617 0.7180122 -0.7850011
000180 bb 3d 2a 3f e6 c3 32 bf 37 61 52 bf fd 8f 27 3f
       0.66500443 -0.6983017 -0.8217959 0.65454084
000190 a1 81 b9 be f0 24 59 3e 7a 29 77 3f e4 5c 59 3f
       -0.36231712 0.21205497 0.96547663 0.84907365
0001a0 21 4b 05 3f 40 33 fb be ae 4a 34 3f fe c7 5b bf
       0.5206776 -0.49062538 0.7042645 -0.8585204
0001b0 5b ea 3f bf 81 4e 3d bf 2f db eb 3e 98 ec 19 bf
       -0.74966973 -0.7394791 0.4606566 -0.6012664
0001c0 29 4d 53 3f 91 10 30 bf 36 40 e5 be 59 38 41 3f
       0.8253961 -0.6877528 -0.44775552 0.75476605
0001d0 98 76 2e bf 85 9e a1 3c 24 0b 29 3f 05 a2 33 3f
       -0.6814971 0.019728908 0.66032624 0.701691
0001e0 87 35 15 3f 6e ac 0d bf f2 e5 30 3f ec d1 30 bf
       0.582848 -0.5534123 0.6910087 -0.69070315
0001f0 4f 1f e1 be c9 61 1f bf ed e6 51 3f 66 48 41 bf
       -0.439692 -0.62258583 0.8199299 -0.75501096
000200 86 42 19 3f 3e b4 02 bf ea 94 07 bf ed b5 09 3f
       0.5986713 -0.5105628 -0.529616 0.5379322
000210 27 f8 0e bf 5d 50 2d 3e f4 e0 08 3f 0d 58 14 3f
       -0.558474 0.16925187 0.5346825 0.57946855
000220 e9 90 09 3f e4 c8 05 bf 6c d8 0f 3f 72 38 0b bf
       0.5373674 -0.5225966 0.5618961 -0.54383004
000230 be 15 06 bf a5 1c 0b bf 9e 9a 08 3f b0 92 02 bf
       -0.52376926 -0.54340583 0.5336093 -0.5100508
000240 a3 24 19 3f 50 ec 1e bf c0 41 15 bf ac 0c 18 3f
       0.5982153 -0.62079334 -0.5830345 0.59394336
000250 bd 27 f5 be 8e e4 ad 3d 12 c5 1d 3f 85 56 23 3f
       -0.4788188 0.08490859 0.6162883 0.63803893
000260 5e 2e 0f 3f 57 bd f0 be cf 90 0b 3f 37 52 1a bf
       0.55930126 -0.47019455 0.54517835 -0.602817
000270 fb 70 1a bf b1 1d 25 bf ce 30 07 3f aa 67 1d bf
       -0.60328645 -0.6449843 0.52808845 -0.61486304
000280 e9 14 14 3f 7b 2e 75 bf 0b 3c 45 bf 50 5f 40 3f
       0.57844406 -0.9577405 -0.77044743 0.75145435
000290 ce 1f 7a be 03 57 9e bc 46 ed 66 3f 33 4b 59 3f
       -0.24426195 -0.0193286 0.902058 0.8488037
0002a0 78 12 34 3f 1c 41 ad be 6f 1d 09 3f d1 1a 42 bf
       0.7034068 -0.33838737 0.5356054 -0.7582217
0002b0 c1 45 61 bf 21 c6 60 bf b3 07 b3 3e 1d cd 60 bf
       -0.8799706 -0.8780232 0.34966812 -0.8781298
0002c0 c1 35 67 3f a5 39 28 bf f3 a5 e1 be 81 84 48 3f
       0.90316397 -0.6571296 -0.44071922 0.78327185
0002d0 c3 32 34 bf 04 cf be 3d 98 6d 45 3f 3a e6 43 3f
       -0.70389956 0.09316829 0.7712035 0.7652317
0002e0 e3 75 09 3f de 94 16 bf 7f 6c 4e 3f 2d e0 46 bf
       0.53695506 -0.58820903 0.806343 -0.77685815
0002f0 22 a9 b8 be 47 a6 0e bf 01 95 58 3f ad b0 35 bf
       -0.36066538 -0.5572247 0.8460236 -0.7097271
000300 73 ca 29 3f 3e 85 26 bf 82 00 14 bf e2 8d 23 3f
       0.6632454 -0.6504706 -0.57813275 0.6388837
000310 57 1f 15 bf d9 dc 7a 3d 83 45 13 3f d2 0b 24 3f
       -0.58250946 0.061245773 0.5752794 0.64080536
000320 9e fe 1a 3f bc 82 04 bf 85 4a 0b 3f 22 63 16 bf
       0.60544765 -0.51761985 0.5441058 -0.58745015
000330 33 b6 1e bf 80 11 2e bf 01 9f 22 3f e4 2e 2d bf
       -0.61996764 -0.6799545 0.6352387 -0.67649674
000340 9e 9d 1e 3f d0 cf 0d bf 32 e9 0d bf 3f 93 15 3f
       0.61959255 -0.5539522 -0.5543395 0.58427805
000350 2e ad 17 bf 47 6b 21 3e d8 03 09 3f 9f 53 18 3f
       -0.59248626 0.1576358 0.5352149 0.59502596
000360 59 81 15 3f 6d fd 0a bf d9 16 14 3f eb e4 0f bf
       0.58400494 -0.5429295 0.5784736 -0.56208676
000370 7d 2f 10 bf 98 ad 1b bf ed 2d 0f 3f c7 32 0e bf
       -0.5632246 -0.6081176 0.5592945 -0.5554623
000380 82 19 2d 3f 12 9c fc be f4 d3 10 bf 3b 84 19 3f
       0.67617047 -0.49337822 -0.56573415 0.5996739
000390 3b 86 29 bf 0b 96 66 3e 70 e8 12 3f 16 0f 19 3f
       -0.66220444 0.22518174 0.5738592 0.59788644
0003a0 2a 5c 0d 3f ef 4c 20 bf 74 71 2d 3f cc 82 21 bf
       0.55218756 -0.6261739 0.6775124 -0.63090205
0003b0 a9 07 0e bf 3a 12 19 bf 03 74 2b 3f cf a4 00 bf
       -0.5548044 -0.59793437 0.66973895 -0.5025148
0003c0 2b 08 22 3f 50 91 24 bf 46 df 16 bf 42 0e 21 3f
       0.63293713 -0.6428423 -0.5893444 0.6291238
0003d0 b3 85 06 bf 0c 91 ac 3d d3 8c 1b 3f 14 d6 25 3f
       -0.5254776 0.08426103 0.60761756 0.6477978
0003e0 c1 c1 19 3f 6c 9c fe be 97 3c 0e 3f fa 1c 1b bf
       0.6006127 -0.49728715 0.555612 -0.6059109
0003f0 7e c1 21 bf 84 36 2d bf df a0 13 3f 4c d3 27 bf
       -0.6318587 -0.6766131 0.57667345 -0.6555679
